…
 ('title AS t', '(t.production_year > 2008)'): 652406,
 ('title AS t', '(t.production_year > 2009)'): 531273,
 ('title AS t', '(t.production_year > 2010)'): 390757,
 ('title AS t', '(t.production_year > 2014)'): 26,
 ('title AS t2', '((t2.production_year >= 2000) AND (t2.production_year <= 2010))'): 1030165,
 ('title AS t2', '((t2.production_year >= 2005) AND (t2.production_year <= 2008))'): 445939,
 ('title AS t2', '(t2.production_year = 2007)'): 122876}
costs stats mean 16.05232524076991 std 1.1142839642805145
Number of model parameters: 757025 (~= 2.9MB)
SimModel(
  (tree_conv): TreeConvolution(
    (query_mlp): Sequential(
      (0): Linear(in_features=40, out_features=128, bias=True)
      (1): LayerNorm((128,), eps=1e-05, elementwise_affine=True)
      (2): LeakyReLU(negative_slope=0.01)
      (3): Linear(in_features=128, out_features=64, bias=True)
      (4): LayerNorm((64,), eps=1e-05, elementwise_affine=True)
      (5): LeakyReLU(negative_slope=0.01)
      (6): Linear(in_features=64, out_features=32, bias=True)
    )
    (conv): Sequential(
      (0): TreeConv1d(
        (weights): Conv1d(155, 512, kernel_size=(3,), stride=(3,))
      )
      (1): TreeStandardize()
      (2): TreeAct(
        (activation): LeakyReLU(negative_slope=0.01)
      )
      (3): TreeConv1d(
        (weights): Conv1d(512, 256, kernel_size=(3,), stride=(3,))
      )
      (4): TreeStandardize()
      (5): TreeAct(
        (activation): LeakyReLU(negative_slope=0.01)
      )
      (6): TreeConv1d(
        (weights): Conv1d(256, 128, kernel_size=(3,), stride=(3,))
      )
      (7): TreeStandardize()
      (8): TreeAct(
        (activation): LeakyReLU(negative_slope=0.01)
      )
      (9): TreeMaxPool()
    )
    (out_mlp): Sequential(
      (0): Linear(in_features=128, out_features=64, bias=True)
      (1): LayerNorm((64,), eps=1e-05, elementwise_affine=True)
      (2): LeakyReLU(negative_slope=0.01)
      (3): Linear(in_features=64, out_features=32, bias=True)
      (4): LayerNorm((32,), eps=1e-05, elementwise_affine=True)
      (5): LeakyReLU(negative_slope=0.01)
      (6): Linear(in_features=32, out_features=1, bias=True)
    )
  )
)
No best checkpoint found (run validaiton yet?); model left unchanged.
plans_lib.FilterScansOrJoins()
plans_lib.GatherUnaryFiltersInfo()
postgres.EstimateFilterRows()
171 unique filters
{('aka_name AS an', "((an.name IS NOT NULL) AND (((an.name)::text ~~ '%a%'::text) OR ((an.name)::text ~~ 'A%'::text)))"): 637664,
 ('aka_name AS an', "((an.name)::text ~~ '%a%'::text)"): 626557,
…
